android_app/app/src/main/assets/stress_model.tflite (tflite, 5908 bytes, 7 tensors)

arith.constant f4 [8, 16]
-0.5644812 0.70354575 -0.28501892 0.020266484 -0.15833803 0.011442851 0.020994864 -0.10235168
0.5123487 1.2173296 0.28852317 0.9313967 0.18548396 0.841 0.27972394 -0.07688031
-0.22538455 -0.5724796 0.047783356 0.29910085 -0.058218986 0.1271446 -0.14013505 0.1536357
-0.38053194 -0.47539213 0.34054318 -0.2253888 -0.08178349 -0.054822303 -0.23001415 0.0038742311
-0.19853806 -0.5612842 0.011645184 -0.033019215 0.0917402 0.25003985 -0.031302005 -0.16095814
-0.76713634 0.5102161 0.30321687 -0.03211622 0.37973654 -0.07378165 -0.4879983 0.26783916
-0.107790604 0.41713598 -0.00766624 -0.30800587 -0.39688224 0.1127864 0.5924879 0.037473526
-0.06327794 0.94042736 0.003939433 -0.36520687 -0.04650879 -0.39892754 0.84593236 -0.15192513
-0.6392971 0.27130777 -0.30513167 -0.3085487 -0.27998516 0.006965761 0.21508564 0.04715263
-0.5142887 -0.58731043 0.102812864 0.93284035 -0.15681157 0.10851829 0.058732152 -0.17684352
-0.038942922 -0.26257545 0.30476105 0.16862999 0.40939033 0.02608838 0.23344068 -0.13450198
-0.8873615 -0.33881387 0.45117316 -0.41751152 0.0703151 -0.98523724 0.18575887 0.13529767
-0.28693047 0.27324304 0.0020993296 0.0012474947 -0.13146342 -0.18360774 0.39087245 0.3837302
0.17244498 -0.7535017 -0.37003928 0.4877662 0.083400615 0.67137986 0.3926484 -0.10221611
0.20564431 0.03475752 -0.15696864 0.021874158 -0.0048660575 0.12531042 -0.4058787 0.0010794324
-0.8564141 -0.90315545 -0.21407598 -0.29875526 0.43397135 -0.6727822 0.10944392 0.15913169
00000000: d781 10bf 931b 343f 00ee 91be e605 a63c
00000010: 5d23 22be cc7a 3b3c 6cfd ab3c c29d d1bd
00000020: 4929 033f 75d1 9b3f 4fb9 933e 0470 6e3f
00000030: 82ef 3d3e c74b 573f fa37 8f3e 6d73 9dbd
00000040: 35cb 66be 068e 12bf 7bb8 433d bf23 993e
00000050: 0877 6ebd 3232 023e 907f 0fbe ad52 1d3e
00000060: 15d5 c2be 9966 f3be ad5b ae3e 52cc 66be
00000070: 1a7e a7bd 5a8d 60bd d488 6bbe d0e6 7d3b
00000080: 904d 4bbe 52b0 0fbf 71cb 3e3c 283f 07bd
00000090: 49e2 bb3d 3905 803e 8836 00bd 36d2 24be
000000a0: 0c63 44bf 869d 023f 3e3f 9b3e 4c8c 03bd
000000b0: d46c c23e d51a 97bd eada f9be 3722 893e
000000c0: 52c1 dcbd d992 d53e 1535 fbbb f2b2 9dbe
000000d0: 2634 cbbe 8efc e63d 49ad 173f d77d 193d
000000e0: dd97 81bd d9bf 703f 5c16 813b 65fc babe
000000f0: 0080 3ebd 3b40 ccbe 068f 583f 4392 1bbe
00000100: faa8 23bf dae8 8a3e 383a 9cbe 18fa 9dbe
00000110: 375a 8fbe 0a41 e43b 693f 5c3e 1e23 413d
00000120: 6da8 03bf fa59 16bf 8d8f d23d a0ce 6e3f
00000130: 3693 20be d63e de3d 2091 703d 7816 35be
00000140: 9d82 1fbd 4a70 86be a409 9c3e 57ad 2c3e
00000150: 9c9b d13e 4cb7 d53c 130b 6f3e e3ba 09be
00000160: 202a 63bf 0379 adbe 2b00 e73e 12c4 d5be
00000170: 5d01 903d 8238 7cbf 9337 3e3e 798b 0a3e
00000180: 8de8 92be 83e6 8b3e e894 093b fa82 a33a
00000190: 599e 06be ab03 3cbe 6f20 c83e 4978 c43e
000001a0: 6b95 303e 7de5 40bf ca75 bdbe 7ebc f93e
000001b0: f1cd aa3d 8ddf 2b3f 3609 c93e ae56 d1bd
000001c0: 6c94 523e e75d 0e3d 63bc 20be 6f31 b33c
000001d0: 7373 9fbb 6051 003e 55cf cfbe be7b 8d3a
000001e0: f43d 5bbf 3235 67bf bc36 5bbe 73f6 98be
000001f0: 7e31 de3e 743b 2cbf 2224 e03d 6bf3 223e

arith.constant1 f4 [8]
-1.6050025 1.0157163 0.52502555 -0.1151137 2.2477295 0.014010554 -0.23784667 1.3438516
00000000: b970 cdbf fe02 823f 1368 063f bbc0 ebbd
00000010: cdda 0f40 868c 653c 148e 73be 5403 ac3f

arith.constant2 f4 [16, 32]
0.39970082 1.1411248 0.45055017 0.5740648 -0.39354372 0.7646431 -0.4428662 0.89229304
0.2609537 -0.04674459 -1.7274007 -1.7194692 0.10586202 0.5691377 -0.4411254 0.9077112
0.11943632 3.3442893 1.4064662 -2.3816595 -0.22788996 -0.020605458 -0.26884353 -1.260187
2.180921 -5.6328473 2.9044023 0.13737667 -0.4984618 -1.9034109 0.5698207 0.5819841
-7.5817766 0.42346513 -0.061338544 0.41730264 -0.69760054 0.2667141 -0.60682636 -1.2177236
-1.8885009 -0.32018915 -1.4821522 -0.38788956 0.16946894 -0.44642514 0.17814745 -3.0186038
0.354107 -7.734887 1.3228446 -1.7887703 -0.3669657 -0.03531684 0.36984798 -3.206057
0.5995515 -6.329521 -0.085120976 -0.36094344 0.20844911 -2.591454 -1.4970176 0.5005042
4.133583 -0.3715589 -0.12869391 0.23405425 -0.1423487 -0.037601363 1.3879504 2.2085423
-0.08264536 -0.37575862 1.2499945 -2.8108656 -0.5260104 0.047304858 0.80592775 -2.621705
0.56734073 4.4804435 1.1127115 -0.95762926 1.2862958 -1.0936579 -0.45921135 -1.4391257
-1.0070837 5.1635885 -3.3496084 0.41648498 -0.27561724 1.6055381 1.2799896 1.5155123
1.0304289 -0.3595184 0.03041033 0.0859102 -0.30420786 -1.1328884 0.22019148 -1.234184
2.5180147 0.33588296 -1.1915509 -2.6499453 0.53268796 -0.41191173 -0.12397331 -0.05309803
0.75327945 1.3121694 1.293474 0.42864287 0.5932161 -0.5467878 -0.51540416 2.3853176
2.685225 -9.310432 1.5811741 -0.6779804 -0.08200834 0.8916002 1.755166 0.831538
3.2684789 0.73917973 -0.34826908 -1.6079041 -0.41462317 -0.9174337 -0.56740355 1.2423079
0.16193238 -0.1674792 0.91140735 0.4266738 0.49660742 0.9324311 -0.42114562 1.8790138
-0.22903836 -0.44933063 2.200023 0.11055409 -0.107971415 0.4566864 -0.46067715 1.8100153
1.4150386 6.027045 -2.539276 -0.3584912 0.36668944 -2.0590463 1.5030383 1.1586268
2.5280547 0.9325805 0.42204705 -1.7517812 -0.1344846 -1.4935315 -0.2716279 0.2523783
-0.63223135 -0.56580275 -0.7586556 1.1896898 -0.14156982 0.1729837 -0.16634783 0.5557131
-0.7664102 4.1082134 0.86179125 -1.4455639 -0.6506269 -0.71266156 -1.0689784 0.8569711
2.2696896 -9.217859 -2.634176 0.74287874 0.4132195 0.21223105 0.18014416 -0.13298962
-2.881878 -0.98638046 -0.23459277 -1.434946 -0.8081556 1.2896436 0.7651544 -3.6558702
0.25597924 -0.5883177 -1.2867477 1.5793942 0.5579639 0.6213835 0.56276286 0.21757098
-0.5806637 -5.813055 1.6002712 0.54097277 -0.3166963 0.5097468 0.042590667 -3.0066888
0.8728522 1.9731315 2.039185 0.39739648 0.81456053 1.1611936 -0.7507229 -1.3420104
-1.8981298 0.94320583 0.30318636 -0.8777275 0.11198613 0.7017952 0.88583636 -1.5271862
-1.7584621 0.044233024 -2.112441 2.7586904 -0.15654768 -0.20945191 -0.31541112 5.048826
0.14058231 -4.7053843 1.0422258 0.7399031 1.1002011 0.3391288 0.8082138 2.3141253
-1.7850473 0.6870777 0.91880393 -0.25339943 0.16891757 1.5651423 -0.33405286 -1.4995952
00000000: 96a5 cc3e 6110 923f 83ae e63e e9f5 123f
00000010: 907e c9be a6bf 433f 5cbf e2be 516d 643f
00000020: b99b 853e 4177 3fbd 771b ddbf 9117 dcbf
00000030: 30ce d83d 02b3 113f 30db e1be c35f 683f
00000040: 089b f43d d608 5640 1607 b43f 1c6d 18c0
00000050: fc5b 69be c7cc a8bc dca5 89be cf4d a1bf
00000060: 3694 0b40 4940 b4c0 bae1 3940 78ac 0c3e
00000070: 6336 ffbe f8a2 f3bf c5df 113f e9fc 143f
00000080: ea9d f2c0 6cd0 d83e 203e 7bbd b1a8 d53e
00000090: f395 32bf c08e 883e f958 1bbf 5ede 9bbf
000000a0: 66ba f1bf d5ef a3be 2ab7 bdbf 7699 c6be
000000b0: 4489 2d3e d691 e4be 496c 363e ce30 41c0
000000c0: 834d b53e 3284 f7c0 f952 a93f 6df6 e4bf
000000d0: eee2 bbbe 64a8 10bd b75c bd3e 0a30 4dc0
000000e0: 357c 193f 708b cac0 e853 aebd 94cd b8be
000000f0: af73 553e 62da 25c0 469e bfbf 0b21 003f
00000100: 5046 8440 f83c bebe 56c8 03be ebab 6f3e
00000110: dcc3 11be e303 1abd 5ca8 b13f c258 0d40
00000120: f841 a9bd 6f63 c0be d2ff 9f3f 39e5 33c0
00000130: 9ea8 06bf bdc2 413d 4851 4e3f 04ca 27c0
00000140: 3e3d 113f cb5f 8f40 556d 8e3f 3127 75bf
00000150: 57a5 a43f fbfc 8bbf c01d ebbe 4535 b8bf
00000160: 1ee8 80bf 1e3c a540 fc5f 56c0 853d d53e
00000170: b41d 8dbe 4682 cd3f b3d6 a33f 4ffc c13f
00000180: 18e5 833f cc12 b8be 161f f93c b0f1 af3d
00000190: 22c1 9bbe 7d02 91bf e079 613e bef9 9dbf
000001a0: 2727 2140 daf8 ab3e bd84 98bf b498 29c0
000001b0: 3d5e 083f 18e6 d2be b8e5 fdbd 527d 59bd
000001c0: ecd6 403f 2bf5 a73f 8e90 a53f 1477 db3e
000001d0: 03dd 173f 49fa 0bbf 87f1 03bf 0ba9 1840
000001e0: bada 2b40 88f7 14c1 ea63 ca3f 2090 2dbf
000001f0: fdf3 a7bd e93f 643f 48a9 e03f addf 543f
00000200: c22e 5140 e23a 3d3f 5350 b2be cdcf cdbf
00000210: 7d49 d4be efdc 6abf 5c41 11bf f203 9f3f
00000220: 9ad1 253e ab7f 2bbe fe51 693f fd74 da3e
00000230: 5443 fe3e ceb3 6e3f 66a0 d7be 8683 f03f
00000240: 0889 6abe aa0e e6be 2dcd 0c40 2f6a e23d
00000250: 1e20 ddbd cdd2 e93e e0dd ebbe 95ae e73f
00000260: fc1f b53f 8ddd c040 7f83 22c0 298c b7be
00000270: b8be bb3e 6ac7 03c0 8f63 c03f e24d 943f
00000280: a6cb 2140 98bd 6e3f 8d16 d83e 5e3a e0bf
00000290: 55b6 09be 0a2c bfbf d012 8bbe bb37 813e
000002a0: ead9 21bf 73d8 10bf 4137 42bf c147 983f
000002b0: aef7 10be a422 313e 1657 2abe 3743 0e3f
000002c0: 7533 44bf 7c76 8340 5a9e 5c3f 3d08 b9bf
000002d0: 7c8f 26bf fd70 36bf 49d4 88bf 7562 5b3f
000002e0: 9842 1140 5a7c 13c1 5796 28c0 4d2d 3e3f
000002f0: 8291 d33e 1953 593e b677 383e 6e2e 08be
00000300: b070 38c0 6e83 7cbf 1639 70be 4fac b7bf
00000310: 49e3 4ebf 0b13 a53f 29e1 433f c7f9 69c0
00000320: b60f 833e fd9b 16bf 26b4 a4bf 9729 ca3f
00000330: b9d6 0e3f fd12 1f3f 3a11 103f edca 5e3e
00000340: 60a6 14bf 8c04 bac0 b0d5 cc3f 317d 0a3f
00000350: 0426 a2be c47e 023f 8d73 2e3d 976d 40c0
00000360: 3e73 5f3f 938f fc3f 0282 0240 8d77 cb3e
00000370: 0a87 503f fea1 943f 602f 40bf ffc6 abbf
00000380: ebf5 f2bf f075 713f 3e3b 9b3e c0b2 60bf
00000390: fc58 e53d daa8 333f 2cc6 623f d67a c3bf
000003a0: 4915 e1bf b02d 353d 3c32 07c0 628e 3040
000003b0: 094e 20be 907a 56be 917d a1be fc8f a140
000003c0: cff4 0f3e 8292 96c0 a867 853f 4a6a 3d3f
000003d0: 64d3 8c3f 4aa2 ad3e 19e7 4e3f a11a 1440
000003e0: 6e7c e4bf 53e4 2f3f bc36 6b3f 92bd 81be
000003f0: baf8 2c3e 9556 c83f fa08 abbe bcf2 bfbf

arith.constant3 f4 [16]
0.4341434 2.1229322 -0.7742388 0.1260589 0.09756309 0.7731856 0.39351687 -0.67710257
1.5252526 1.0374557 0.22337367 1.3019354 1.0350608 0.06011132 1.2850063 0.42771897
00000000: 0b48 de3e 1fde 0740 8434 46bf 9615 013e
00000010: 28cf c73d 7eef 453f 0b7b c93e 9856 2dbf
00000020: 7a3b c33f 59cb 843f 11bc 643e d2a5 a63f
00000030: df7c 843f 4a37 763d 167b a43f fbfd da3e

arith.constant4 f4 [1, 8]
-0.78431535 0.5272949 0.6751238 -0.80169797 -0.79247075 0.21083821 -0.9664701 0.7450686
00000000: e4c8 48bf ccfc 063f ead4 2c3f 143c 4dbf
00000010: 5ddf 4abf f9e5 573e 966a 77bf d1bc 3e3f

arith.constant6 f4 [32]
-0.28936443 0.013823151 0.19106525 0.0015568198 -0.18600406 0.15277891 -0.056369755 -0.30124065
-0.28268424 -0.01819243 -0.03733677 0.1883369 0.11334542 0.0007632912 -0.01161388 -0.08383047
0.035437725 -0.1695434 -0.03636421 0.079935014 0.104731895 0.07931206 0.021248061 -0.27715364
-0.24190868 -0.10655644 -0.013306994 -0.04275083 -0.027721446 -0.006186874 -0.35399753 0.046881035
00000000: 9327 94be 7f7a 623c 9ca6 433e 340e cc3a
00000010: d977 3ebe 1372 1c3e f9e3 66bd 373c 9abe
00000020: fdbb 90be 4a08 95bc 71ee 18bd 63db 403e
00000030: a521 e83d 9b17 483a 2548 3ebc 4faf abbd
00000040: 2627 113d c99c 2dbe a3f2 14bd f8b4 a33d
00000050: ad7d d63d 5c6e a23d 6a10 ae3c 15e7 8dbe
00000060: e9b6 77be 433a dabd 9405 5abc 7f1b 2fbd
00000070: 1618 e3bc 43bb cabb 2a3f b5be 5406 403d

sequential_1/dense_1/MatMul f4 [32, 4]
0.28376892 0.17542307 0.17278272 -0.043927655 -0.24155506 0.002379969 0.28931075 0.0045453794
-0.42485195 0.23206173 -0.19190277 0.30989257 -0.17778781 -0.1685959 -0.3130793 -0.18486725
0.35859063 0.25896424 0.31153443 0.11176907 -0.1931356 -0.14642349 -0.09719384 -0.24334943
-0.12354055 0.22504403 0.23268697 -0.30694628 0.32175592 0.19129616 0.19263592 -0.051280685
0.2988546 0.18042809 0.1748356 -0.06623089 0.23748395 -0.13560537 0.12188751 0.48054233
-0.1352081 -0.26203734 0.15622407 -0.22835325 -0.14464653 -0.07895726 -0.1102284 0.047252234
-0.41816327 0.06568427 0.17437792 -0.31674635 0.2801277 0.36792305 -0.05170442 -0.19773428
-0.17033876 0.23452845 0.069501385 0.4381381 0.086282305 -0.44499993 -0.27404153 -0.08081641
-0.07691933 0.031201243 0.20215714 0.25147524 0.16722912 0.10704628 0.10739192 -0.02514469
0.089927696 -0.052034583 -0.07507397 0.16240075 -0.20819205 -0.025713578 -0.1621525 -0.104963556
-0.15840665 0.30928463 -0.09265443 -0.30382136 -0.33369207 -0.13142402 -0.0069360626 0.060501304
-0.15479226 0.097510986 -0.261877 -0.18117176 0.27077743 0.16766952 0.17327073 -0.02751724
0.29612228 0.16415423 0.17556244 -0.058463883 0.034539357 -0.3081498 -0.11211817 0.010735536
-0.10860679 -0.13357808 0.02865916 -0.23321837 -0.20110692 0.32233182 -0.28971648 -0.30721885
-0.046029404 0.18382037 0.35546046 -0.16525511 -0.12941614 -0.20092888 -0.22917704 0.024294078
0.38107744 0.22810778 0.22041833 -0.07787237 0.1121036 0.30060652 0.10989155 -0.058672328
00000000: 294a 913e 1ba2 333e f4ed 303e 7ced 33bd
00000010: 365a 77be 41f9 1b3b 8a20 943e 68f1 943b
00000020: 3286 d9be 97a1 6d3e 2982 44be 3daa 9e3e
00000030: 020e 36be 67a4 2cbe ee4b a0be d74d 3dbe
00000040: 3199 b73e f696 843e 7181 9f3e 2fe7 e43d
00000050: 57c5 45be 0af0 15be 900d c7bd 9830 79be
00000060: d402 fdbd f171 663e 7e45 6e3e 1028 9dbe
00000070: 31bd a43e 24e3 433e 5a42 453e b20b 52bd
00000080: 7803 993e 24c2 383e 1b08 333e 10a4 87bd
00000090: fe2e 733e 22dc 0abe 29a0 f93d a509 f63e
000000a0: fe73 0abe c229 86be 34f9 1f3e 6fd5 69be
000000b0: 381e 14be 58b4 a1bd 6dbf e1bd 8f8b 413d
000000c0: 7f19 d6be 7985 863d 2090 323e 942c a2be
000000d0: e66c 8f3e 6960 bc3e 04c8 53bd db7a 4abe
000000e0: 496d 2ebe 3a28 703e be56 8e3d a353 e03e
000000f0: c7b4 b03d 08d7 e3be 2c4f 8cbe 1383 a5bd
00000100: e287 9dbd c099 ff3c 4802 4f3e 5dc1 803e
00000110: 1c3e 2b3e 143b db3d 4cf0 db3d 3dfc cdbc
00000120: 032c b83d 3722 55bd 62c0 99bd 624c 263e
00000130: 4c30 55be 48a5 d2bc 4e0b 26be 22f7 d6bd
00000140: 5a35 22be 8e5a 9e3e 9bc1 bdbd 798e 9bbe
00000150: b0d9 aabe 0594 06be e947 e3bb 37d0 773d
00000160: dd81 1ebe d7b3 c73d be14 86be 1785 39be
00000170: 57a3 8a3e 8fb1 2b3e e26d 313e d66b e1bc
00000180: 579d 973e 0c18 283e a4c6 333e d377 6fbd
00000190: 2479 0d3d d0c5 9dbe 369e e5bd 1ae4 2f3c
000001a0: 3d6d debd b1c8 08be 9dc6 ea3c ccd0 6ebe
000001b0: f9ee 4dbe ad08 a53e b855 94be ca4b 9dbe
000001c0: 5489 3cbd 683b 3c3e eafe b53e a338 29be
000001d0: aa85 04be 4dc0 4dbe 63ad 6abe 6004 c73c
000001e0: 951c c33e 1695 693e 58b5 613e 8d7b 9fbd
000001f0: 9296 e53d 19e9 993e d20e e13d 6552 70bd
